checkpoint_critic.pth (torch_old, 18464 bytes, 7 tensors)

fcs1.weight f4 [64, 24]
-0.02608332 -0.048790697 0.04283336 0.076294 0.4346387 -0.77814263 -0.042366322 -0.068193
0.021745672 -0.021789318 0.007078207 0.034378737 0.023886945 0.21062934 -0.009217305 -0.025588157
-0.03236433 0.025988434 -0.047909956 0.059415758 -0.6280533 0.8190773 0.04147271 0.018051937
-0.048030093 0.047924813 -0.040737193 -0.005567558 0.07945979 -0.063535854 0.04489303 -0.030729292
-0.007459613 0.103744954 -0.053897645 0.28057414 -0.37644503 -1.2918849 0.05224274 0.27660266
0.015661264 -0.023008084 -0.05105675 -0.22866985 0.23103283 1.1213077 0.048848137 -0.456423
-0.08277006 0.01397441 0.11211457 -0.086246185 0.14820488 0.14621311 -0.1178969 0.005878088
0.08627189 0.054502282 -0.02799739 0.13164628 -0.09422058 -0.3977569 0.060515326 0.02401302
0.32951364 0.047344737 0.09681422 0.04212967 -0.62993157 0.07971997 -0.02529189 -0.047644135
-0.07591059 -0.14889957 -0.015744414 -0.024748335 -0.15760182 -0.252656 0.0041417107 0.14299244
0.09249195 -0.24161823 -0.08484477 -0.020177405 -0.24833515 0.11840273 0.08072978 0.11044197
0.105519 -0.2867568 -0.07290537 -0.049489867 0.68706393 0.8662002 0.1006904 -0.02368447
-0.008540834 0.8368943 0.014079192 -0.042003866 -0.1199295 0.4553771 0.0017112432 0.0011778438
-0.09330138 0.60636836 -0.07725989 0.09906783 0.5136943 -0.65684247 0.09252594 0.16637252
-0.03559568 0.65347457 0.0058661425 0.024144148 0.4425793 0.0018994611 0.029134626 0.13650033
-0.005242822 -0.2189539 -0.0494782 0.031540625 0.24041697 0.13760835 0.05313683 0.088578045
-0.078556396 -0.18699339 0.066522755 0.043068755 0.09213371 0.4355652 -0.049127236 0.18904744
0.15397456 -0.37079906 0.02159424 -0.19110413 -0.10103334 -0.95846343 -0.040496048 -0.3132211
0.082057476 -0.34367028 0.0026733805 -0.001777658 -0.10611419 -0.6332425 0.038963795 0.062295858
0.23883313 -0.34958276 0.05297795 -0.08658516 -0.082539536 -0.8359963 0.022510257 0.07715686
0.16094992 -0.5218815 -0.027378323 0.001765159 0.065085895 0.2807167 0.08867982 0.04627147
-0.12853515 -0.20674427 -0.078068 -0.032024436 0.32332373 -0.24310039 0.075818874 0.026290754
0.06874973 0.07099172 -0.05315767 0.07909587 -0.10371356 0.062108025 0.026894864 -0.007903214
0.44178313 0.00088697876 -0.004905313 -0.16340637 -0.8327814 0.11910639 -0.012297301 -0.00044094262
0.008238501 -0.14534073 -0.029541748 0.054207034 -0.53165215 0.4279141 0.028016422 -0.039196078
0.011605867 0.05970734 -0.035187762 -0.05563499 -0.26157808 0.3852281 0.03642388 0.027992988
-0.022179935 -0.019417213 0.011541208 -0.1843468 1.1039212 -0.6350154 -0.011223868 0.026186753
0.0023928613 -0.21632297 0.017184274 -0.0072932653 -0.026007157 0.2595391 -0.014779642 -0.07154713
0.066702515 -0.18487088 -0.03729465 -0.35926044 -0.36856088 -0.2157718 -0.01721124 -0.3696507
0.62933886 -0.2162952 -0.09815645 0.18443517 -0.36719468 -0.55443627 0.0880204 0.20166299
0.078829624 0.018197827 -0.052411057 -0.062367037 0.14708857 0.8711039 0.06255864 0.08707219
0.02530887 0.04162439 0.0877227 0.083417356 0.056292605 0.5654464 -0.07891634 -0.019239817
00000000: b0ac d5bc c1d8 47bd 0972 2f3d 0740 9c3d
00000010: f788 de3e 5b34 47bf 4f88 2dbd c6a8 8bbd
00000020: fb23 b23c 837f b2bc 4ef0 e73b b8d0 0c3d
00000030: 8eae c33c 38af 573e 2e04 17bc 419e d1bc
00000040: 7690 04bd b2e5 d43c 3b3d 44bd f05d 733d
00000050: 1ac8 20bf 0daf 513f 4adf 293d a8e1 933c
00000060: 34bb 44bd cf4c 443d 0bdc 26bd 1070 b6bb
00000070: d0bb a23d 161f 82bd c1e1 373d ffbb fbbc
00000080: c56f f4bb 3c78 d43d c7c3 5cbd 6aa7 8f3e
00000090: 67bd c0be 7c5c a5bf 7cfc 553d dd9e 8d3e
000000a0: 0d4c 803c 737b bcbc e220 51bd 6e28 6abe
000000b0: df93 6c3e 0387 8f3f fc14 483d 47b0 e9be
000000c0: 5983 a9bd ecf4 643c 539c e53d d7a1 b0bd
000000d0: 05c3 173e e4b8 153e ee73 f1bd fa9c c03b
000000e0: 51af b03d c93d 5f3d c85a e5bc 48ce 063e
000000f0: b8f6 c0bd cba6 cbbe ebde 773d f4b6 c43c
00000100: 03b6 a83e 8eec 413d 8946 c63d 2990 2c3d
00000110: 3243 21bf 3944 a33d f030 cfbc 7f26 43bd
00000120: 0377 9bbd 2179 18be 6efa 80bc 05bd cabc
00000130: 5f62 21be 215c 81be 30b7 873b 9c6c 123e
00000140: 6b6c bd3d c56a 77be 18c3 adbd 164b a5bc
00000150: 924b 7ebe 217d f23d a855 a53d 662f e23d
00000160: 581a d83d cad1 92be 694f 95bd e3b5 4abd
00000170: 6ce3 2f3f 4cbf 5d3f c536 ce3d ef05 c2bc
00000180: dbee 0bbc b43e 563f 69ac 663c 3f0c 2cbd
00000190: 999d f5bd 3027 e93e cb4b e03a e161 9a3a
000001a0: cb14 bfbd f53a 1b3f 6f3a 9ebd 13e4 ca3d
000001b0: 7881 033f d426 28bf 3d7e bd3d 8f5d 2a3e
000001c0: c7cc 11bd 1c4a 273f c538 c03b f3c9 c53c
000001d0: c199 e23e 57f7 f83a bdab ee3c bec6 0b3e
000001e0: fbcb abbb 7335 60be a7a9 4abd be30 013d
000001f0: de2f 763e 34e9 0c3e 01a6 593d 6868 b53d
00000200: 2de2 a0bd 327b 3fbe 153d 883d dd68 303d
00000210: 99b0 bc3d 6702 df3e a439 49bd a795 413e
00000220: 82ab 1d3e 60d9 bdbe 67e6 b03c cdb0 43be
00000230: 91ea cebd dc5d 75bf 2fdf 25bd 845e a0be
00000240: c00d a83d 8df5 afbe e233 2f3b 4e00 e9ba
00000250: 6552 d9bd 2e1c 22bf 8098 1f3d f129 7f3d
00000260: ac90 743e 83fc b2be 68ff 583d 8f53 b1bd
00000270: 7d0a a9bd db03 56bf 6e67 b83c 6a04 9e3d
00000280: 0ed0 243e 079a 05bf 8148 e0bc e85c e73a
00000290: c14b 853d 19ba 8f3e c49d b53d 2787 3d3d
000002a0: b89e 03be c5b4 53be 1ee2 9fbd 0e2c 03bd
000002b0: b08a a53e 4fef 78be ed46 9b3d b55f d73c
000002c0: a9cc 8c3d 1b64 913d dbbb 59bd 04fd a13d
000002d0: c667 d4bd fc64 7e3d 9e52 dc3c 7b7c 01bc
000002e0: 6631 e23e 2384 683a bfbc a0bb 0054 27be
000002f0: 2931 55bf 0dee f33d 9e7a 49bc 512e e7b9
00000300: c7fa 063c 33d4 14be 8901 f2bc 3208 5e3d
00000310: 5b1a 08bf 8f17 db3e b282 e53c 118c 20bd
00000320: 8926 3e3c af8f 743d 0b21 10bd 84e1 63bd
00000330: 90ed 85be 9e3c c53e 3531 153d 8d51 e53c
00000340: b2b2 b5bc d910 9fbc 5617 3d3c 68c5 3cbe
00000350: 4a4d 8d3f 5f90 22bf 50e4 37bc 9a85 d63c
00000360: 8dd1 1c3b c583 5dbe 09c6 8c3c 58fc eebb
00000370: f60c d5bc 4fe2 843e 5026 72bc 4d87 92bd
00000380: 549b 883d cb4e 3dbe 46c2 18bd fcf0 b7be
00000390: 03b4 bcbe 48f3 5cbe 96fe 8cbc db42 bdbe
000003a0: 5a1c 213f 7d7c 5dbe 4006 c9bd 93dc 3c3e
000003b0: f100 bcbe 89ef 0dbf 0a44 b43d be80 4e3e
000003c0: 6d71 a13d 9c13 953c faac 56bd 9474 7fbd
000003d0: 639e 163e aa00 5f3f bf1e 803d e852 b23d
000003e0: 8c54 cf3c 567e 2a3d f5a7 b33d b8d6 aa3d
000003f0: 1393 663d 18c1 103f e49e a1bd d29c 9dbc

fcs1.bias f4 [64]
-1.1376288 0.046675038 -0.18459639 -0.5292295 0.46152604 0.417677 -0.40684903 -0.34346256
0.33592975 0.21432976 -0.33724028 -0.2039901 -0.032778867 0.1549652 0.5091481 -0.033312187
0.20690049 -0.97323537 -0.18907952 0.64452785 0.42098233 -0.4376256 -0.3653879 -0.3713498
0.8130757 -0.38040304 -0.65320027 0.68918204 -0.5984179 0.46490994 1.3346838 -0.20610888
-0.8582922 -0.77614444 -0.65311766 -0.53907573 -0.9309124 0.67507076 0.37244648 0.58182436
0.48947868 -0.37937248 -0.7414559 -1.0915914 0.4029677 -0.2969983 -0.37693763 -0.045672603
0.18052413 -0.23972623 0.93595153 0.35524124 -0.6268259 -0.0970164 -0.6523479 0.4710942
-0.20249492 0.19294171 -0.61363405 -0.08294464 0.07181872 -0.22384964 -0.13962726 -1.3278087
00000000: d29d 91bf 532e 3f3d d606 3dbe 967b 07bf
00000010: 244d ec3e c2d9 d53e 844e d0be 53da afbe
00000020: fcfe ab3e 4379 5b3e c2aa acbe c8e2 50be
00000030: 2243 06bd 33af 1e3e 8857 023f 5c72 08bd
00000040: b9dd 533e f425 79bf 109e 41be c7ff 243f
00000050: ff8a d73e 7610 e0be 1f14 bbbe 9021 bebe
00000060: bb25 503f 30c4 c2be 2238 27bf 3c6e 303f
00000070: ea31 19bf ad08 ee3e ebd6 aa3f 350e 53be
00000080: 0ab9 5bbf 67b1 46bf b832 27bf de00 0abf
00000090: 4650 6ebf 70d1 2c3f 4eb1 be3e 71f2 143f
000000a0: f39c fa3e 1c3d c2be 0ed0 3dbf 44b9 8bbf
000000b0: c851 ce3e 2910 98be f8fd c0be 3213 3bbd
000000c0: 51db 383e cb7a 75be 859a 6f3f 2ee2 b53e
000000d0: aa77 20bf 89b0 c6bd 4600 27bf 4233 f13e
000000e0: d45a 4fbe 8392 453e 1f17 1dbf e1de a9bd
000000f0: b115 933d d738 65be 73fa 0ebe a3f5 a9bf

fc2.weight f4 [32, 66]
0.14262648 0.061088204 -0.05331566 -0.0387536 0.039384153 -0.2808004 -0.13224617 -0.28416637
-0.49495393 0.04005028 -0.07165209 0.049543317 -0.02110851 -0.26991892 -0.11662116 -0.024548654
0.19610924 -0.24581066 -0.16403034 0.262775 -0.051812466 -0.1324544 -0.15836726 0.18138315
-0.21624543 -0.019253762 0.16236384 -0.2761903 -0.25104737 -0.01800887 -0.06738649 -0.105660446
0.028470092 0.11487963 -0.13206984 0.24466693 -0.20330806 -0.34880427 -0.3652764 -0.15263364
0.35187656 0.23122817 0.16851959 -0.05574974 0.014838865 0.17452966 -0.71671057 -0.20372799
0.05719713 0.08670127 -0.06995293 -0.008474979 0.07753452 0.1255648 0.097792126 0.07529133
-0.01720653 0.006908337 0.10071411 -0.035752364 -0.08088445 -0.1168532 0.043684416 0.42950174
0.27563992 0.18348736 0.060287632 0.4558205 0.11537992 0.08452469 0.12465232 -0.19535825
-0.14298885 0.03914013 0.09997328 0.038856737 -0.103078716 -0.48995128 -0.70031744 -1.0830508
-0.29547644 -0.20351957 -0.30321908 -0.34062114 -0.05912045 -0.03908398 0.11368268 -0.13229145
0.030931164 0.24789645 -0.588703 0.15290919 -0.23595516 0.05473279 0.25723097 -0.2536648
-0.2587038 0.27155405 -0.5365973 0.09694948 0.12215655 0.43341234 -0.1966606 -0.86852694
-0.537141 -1.5552266 -0.34243864 -0.14464535 0.21624443 0.57671124 -0.3501966 0.20865943
0.43088505 -0.085564464 -0.06387984 -0.2057706 -1.3614303 0.039838668 -0.074629754 -0.12954073
-0.04301576 0.14614727 0.030463865 0.46191347 0.021619633 -0.32059127 -0.061494607 -0.097553596
-0.62073344 0.70518595 -0.08571954 -0.6685035 -0.412839 0.4297036 0.22050703 0.22646248
-0.09199842 -0.09702612 -0.008369668 -0.013990659 0.13668245 0.14032133 -0.16323231 -0.043224625
0.1159136 -0.15240574 0.0096110655 0.052326333 0.025013197 -0.21782933 -0.29000318 0.13765736
0.2756723 0.045430347 -0.165923 0.32279736 -0.12256647 -0.089205526 0.0050817085 -0.1281786
0.24486117 -0.0318434 0.10807014 0.13406089 -0.17106004 0.1767056 -0.027014121 0.50634325
-0.017874151 -0.41707784 -0.10024093 -0.8683141 -0.33092725 -0.03373614 0.03730564 -0.15845643
-0.062148314 0.28883547 -0.050634094 -0.20447193 0.039568134 0.007155333 -0.83655757 0.003740988
-0.08971445 0.049209576 -0.52022064 0.1789169 -0.113126606 0.080768995 0.053846285 -0.06817939
-0.24814153 -0.042175405 0.150504 0.16421321 0.004187974 0.009443991 -0.35176516 -0.55470103
-0.38233536 -1.0134435 -0.9636296 0.007879068 -0.17996018 -0.12721853 0.5519556 0.15157005
0.16595015 -0.38178754 0.025124272 0.14208423 -0.21271007 0.039901637 -0.81866205 -1.3220001
-0.5535531 0.31416303 -0.094016254 -0.018414102 0.25798595 -0.43106627 0.22263907 -0.6803646
-0.71486956 -0.031442758 0.41761243 0.021010011 0.17433386 0.07836861 0.08984423 -0.49572355
0.16554168 -0.61443096 -0.043898594 0.3141103 -0.20043899 0.2600433 -0.08215656 -0.26291102
-0.7108231 -0.27886316 -0.015792966 0.017107198 -0.053489473 -1.1366123 0.09972473 0.09082165
0.089911856 -0.3400825 -0.2784333 0.3521143 -0.5167552 -0.07710897 -0.08543623 0.50252503
00000000: ad0c 123e a037 7a3d 8661 5abd 18bc 1ebd
00000010: 4751 213d 12c5 8fbe 8a6b 07be 417e 91be
00000020: 9a6a fdbe c30b 243d 55be 92bd efed 4a3d
00000030: c1eb acbc d032 8abe 13d7 eebd 421a c9bc
00000040: dcd0 483e cab5 7bbe 92f7 27be 728a 863e
00000050: 4f39 54bd 20a2 07be 072b 22be 81bc 393e
00000060: 716f 5dbe 11ba 9dbc b542 263e d168 8dbe
00000070: 4889 80be 5687 93bc ee01 8abd 8164 d8bd
00000080: 1c3a e93c 0346 eb3d 513d 07be f889 7a3e
00000090: fd2f 50be 7996 b2be 8205 bbbe fe4b 1cbe
000000a0: 2a29 b43e 14c7 6c3e 6690 2c3e d759 64bd
000000b0: b61e 733c e7b7 323e 587a 37bf 129e 50be
000000c0: 8a47 6a3d 6f90 b13d 7b43 8fbd a3da 0abc
000000d0: 6bca 9e3d 0f94 003e 3d47 c83d 5732 9a3d
000000e0: b5f4 8cbc 555f e23b 3343 ce3d 1271 12bd
000000f0: bfa6 a5bd bb50 efbd 6eee 323d a7e7 db3e
00000100: ad20 8d3e 1ce4 3b3e 2af0 763d 4e61 e93e
00000110: 4f4c ec3d 481b ad3d b749 ff3d fe0b 48be
00000120: ab6b 12be 6751 203d cbbe cc3d 3e28 1f3d
00000130: ef1a d3bd e5da fabe 0148 33bf 69a1 8abf
00000140: b048 97be 6f67 50be 883f 9bbe e565 aebe
00000150: 4928 72bd 8616 20bd 77d2 e83d 6977 07be
00000160: 5a63 fd3c 91d8 7d3e 3db5 16bf 3a94 1c3e
00000170: 3b9e 71be 7d2f 603d c7b3 833e 5ae0 81be
00000180: d374 84be 2209 8b3e 715e 09bf 738d c63d
00000190: 372d fa3d 39e8 dd3e 6561 49be c857 5ebf
000001a0: 1382 09bf aa11 c7bf 1e54 afbe e91d 14be
000001b0: 2e6f 5d3e 59a3 133f f84c b3be d1aa 553e
000001c0: f79c dc3e 6c3c afbd 6fd3 82bd 87b5 52be
000001d0: 5943 aebf df2d 233d 7cd7 98bd 53a6 04be
000001e0: 4b31 30bd a1a7 153e 5b8f f93c ec7f ec3e
000001f0: a81b b13c 8a24 a4be c5e1 7bbd 2eca c7bd
00000200: 63e8 1ebf 1187 343f ba8d afbd 0c23 2bbf
00000210: a25f d3be 1c02 dc3e 98cc 613e c8e5 673e
00000220: ab69 bcbd a1b5 c6bd ef20 09bc 1439 65bc
00000230: 7cf6 0b3e 65b0 0f3e 5f26 27be 4e0c 31bd
00000240: 1c64 ed3d 4010 1cbe bb77 1d3c 2354 563d
00000250: 7ae8 cc3c a70e 5fbe 4c7b 94be 0df6 0c3e
00000260: eb24 8d3e 2c15 3a3d b8e7 29be b245 a53e
00000270: 2104 fbbd 63b1 b6bd 7684 a63b 4041 03be
00000280: e3bc 7a3e 3a6e 02bd e153 dd3d 4247 093e
00000290: 5d2a 2fbe 50f2 343e b84c ddbc b69f 013f
000002a0: d06c 92bc 3a8b d5be 1e4b cdbd d549 5ebf
000002b0: 4c6f a9be e82e 0abd cccd 183d 6742 22be
000002c0: 3b8f 7ebd 3ee2 933e b265 4fbd 1761 51be
000002d0: 3212 223d 4977 ea3b a328 56bf 5d2b 753b
000002e0: 36bc b7bd fb8f 493d 2e2d 05bf fe35 373e
000002f0: ecae e7bd 376a a53d ec8d 5c3d a3a1 8bbd
00000300: d018 7ebe 1ec0 2cbd b81d 1a3e 8227 283e
00000310: 463b 893b f8ba 1a3c 901a b4be e300 0ebf
00000320: 76c1 c3be 84b8 81bf 6eb0 76bf 3517 013c
00000330: 7b47 38be 9345 02be f64c 0d3f 2e35 1b3e
00000340: d6ee 293e a879 c3be 6bd1 cd3c 877e 113e
00000350: abd0 59be e66f 233d d693 51bf 4d37 a9bf
00000360: a8b5 0dbf fad9 a03e 988b c0bd 2cd9 96bc
00000370: bc16 843e b8b4 dcbe 7ffb 633e 602c 2ebf
00000380: b101 37bf 1fca 00bd 4cd1 d53e 301d ac3c
00000390: 9384 323e b97f a03d 4000 b83d 7acf fdbe
000003a0: c283 293e 594b 1dbf 03cf 33bd 11d3 a03e
000003b0: e13f 4dbe 6524 853e b341 a8bd 469c 86be
000003c0: 81f8 35bf 27c7 8ebe 4060 81bc 6524 8c3c
000003d0: c717 5bbd 837c 91bf 7b3c cc3d b400 ba3d
000003e0: b523 b83d 4b1f aebe cf8e 8ebe 5348 b43e
000003f0: 124a 04bf 4feb 9dbd 31f9 aebd 7ba5 003f

fc2.bias f4 [32]
-0.55372655 -0.7533983 -0.026410261 -0.005149587 -0.3423706 0.0787558 -0.114849396 0.31453022
0.340649 0.24490665 0.2875636 -0.18737377 0.37829652 0.52589715 -0.39459294 -0.13289174
0.09994448 0.4476218 -0.8575607 0.8052667 -0.032862402 -0.13978177 0.4557475 -0.09487423
0.059104525 -0.042277277 0.12464938 0.62377906 -0.3626411 -0.6143683 0.7420182 0.06361768
00000000: 06c1 0dbf b6de 40bf 555a d8bc debd a8bb
00000010: 334b afbe b94a a13d 2936 ebbd 1b0a a13e
00000020: 8c69 ae3e cfc8 7a3e 893b 933e e9de 3fbe
00000030: 15b0 c13e 32a1 063f 1608 cabe c614 08be
00000040: b1af cc3d af2e e53e 1989 5bbf f525 4e3f
00000050: ba9a 06bd f422 0fbe bc57 e93e 6c4d c2bd
00000060: 9617 723d f02a 2dbd 2d48 ff3d fcaf 1f3f
00000070: 18ac b9be 3e47 1dbf e8f4 3d3f fc49 823d

fc3.weight f4 [16, 32]
-0.14186801 -0.26754656 -0.44323567 -0.41776735 -0.23830056 0.21079436 -0.16291223 -0.2564785
0.09025979 -0.17174406 -0.35237706 -0.44030756 -0.24941808 -0.1858409 -0.2737375 -0.9913791
-0.20618957 -0.10403854 -0.29959273 0.42603076 0.016357062 -0.21186791 0.15964112 -0.99031067
-1.0406144 -0.7099614 0.109129496 0.1785501 -0.09429404 -0.10398353 0.0508561 -0.5146731
-0.08290173 -0.52060336 -0.8038159 0.07836443 0.15672067 -0.63825256 0.021201737 -0.94590235
0.49690223 -2.1845176 -0.019962987 -0.2517846 -0.29480785 -0.11940187 -0.10428062 0.07727072
0.198673 -0.19494389 -0.23191926 0.2951676 0.3904889 -0.4779264 -0.24729948 -0.6529278
-0.024178337 -0.7681093 0.16463263 -0.16387281 -0.20022294 -0.7602969 0.30176976 0.08878757
-0.047537725 0.2318755 -0.1301918 0.11449722 -0.3212851 -0.24220195 -0.1004038 -0.46351537
-0.6360829 -0.22052158 -0.30351162 0.09380571 0.11830348 0.11579253 0.16966948 -0.107931
0.03752124 -0.025883516 0.025975242 0.0043841433 -0.15317407 -0.1221247 -0.2825576 -0.14617504
0.11008303 -0.13177337 0.13849503 -0.43890563 0.21967809 0.15319663 -0.018155389 -0.31654876
0.04409233 -0.1860886 -0.86699265 -0.29731032 -0.42580828 -0.6338322 -0.25236854 -0.299954
-0.4932534 -0.31293416 -0.054767493 -0.11107367 0.3216142 -0.45482978 -0.14676096 0.089119256
-0.4771228 0.06212335 -0.05401411 0.27041423 -0.4189024 -0.025858337 -0.2622612 -0.044447616
-0.2345797 0.06596409 -0.92388785 -1.0080756 -0.012373427 -1.1312143 -0.19387995 -0.30486232
0.33094862 -0.26154563 0.13699414 0.0011652862 -0.44974816 0.627423 -0.047153983 0.29810363
0.3999855 0.1591999 0.17261682 -0.48077083 0.03126879 0.06903616 0.295026 -0.10903247
-0.87462646 -0.23069699 0.09570013 0.12978032 0.025634663 0.29294938 0.29376158 -0.12695925
0.16083805 0.08411974 -0.3441529 0.48304826 -0.061921325 -0.13397817 0.03682743 -0.36366045
-0.21457776 -0.5343618 -0.40260014 -0.00841063 -0.7314845 0.20368312 -0.93688613 -0.14641234
-0.94440323 -0.37424865 -0.107015975 -0.2029595 0.01736817 -0.06920718 0.18990389 -1.1119436
-0.41826156 -0.035201196 0.04114326 0.23714013 -0.36345416 -0.34412706 0.24615385 -0.6730208
-0.2375652 -0.2868309 -0.14897582 0.18555763 -0.4417536 -0.42538878 -0.11578821 -0.40388563
0.02388213 -0.5233451 -0.62558115 -0.8394371 -0.95818335 0.13609158 -1.0717916 -0.69775295
-0.60357314 -0.35689747 -0.099562585 -0.7579678 0.11862662 0.099193275 0.11319684 -1.1568203
-0.32676172 0.048391 -0.094106436 -0.024155183 0.0005191963 -0.84032744 0.112972036 -0.3160339
0.060167745 -0.14086187 -0.073841184 0.25861847 -0.40719262 -0.3511776 -0.060255975 0.019863823
-0.026580717 0.097583115 -0.440272 -0.052710053 -0.010103853 0.055292547 -0.17746541 -0.30008262
-0.50577503 0.10922011 0.27420124 -0.09760075 0.000117180345 -0.020961218 0.16016524 0.095270924
-0.32528716 -0.03175909 0.11770282 0.36754087 0.038193505 -0.056003265 -0.023376012 0.0858992
0.116404906 0.10044874 -0.07637135 -0.3637614 -0.2450472 -0.21830063 0.11759945 -0.048258968
00000000: d945 11be ddfb 88be c9ef e2be 9ae5 d5be
00000010: 1005 74be 7ada 573e 77d2 26be 2651 83be
00000020: 20da b83d addd 2fbe c46a b4be fe6f e1be
00000030: 7467 7fbe 144d 3ebe 5227 8cbe 05cb 7dbf
00000040: 5c23 53be 2812 d5bd 3864 99be b420 da3e
00000050: 3fff 853c e7f3 58be f678 233e 0085 7dbf
00000060: da32 85bf 08c0 35bf 497f df3d d6d5 363e
00000070: 3c1d c1bd 51f5 d4bd 7c4e 503d 9ec1 03bf
00000080: 62c8 a9bd 4346 05bf e1c6 4dbf 887d a03d
00000090: 627b 203e 8564 23bf 44af ad3c a826 72bf
000000a0: f869 fe3e 23cf 0bc0 6b89 a3bc e9e9 80be
000000b0: 0ef1 96be f888 f4bd 1491 d5bd 1c40 9e3d
000000c0: ef70 4b3e 5f9f 47be 3e7c 6dbe 3520 973e
000000d0: 29ee c73e c5b2 f4be 133c 7dbe 4726 27bf
000000e0: a611 c6bc d0a2 44bf 7595 283e 46ce 27be
000000f0: 3e07 4dbe d1a2 42bf 9181 9a3e 42d6 b53d
00000100: ebb6 42bd c570 6d3e 0051 05be 857d ea3d
00000110: 7b7f a4be ca03 78be 82a0 cdbd e351 edbe
00000120: 54d6 22bf 69d0 61be e065 9bbe 351d c03d
00000130: 1849 f23d a224 ed3d d6bd 2d3e ee0a ddbd
00000140: dfaf 193d ab09 d4bc 08ca d43c dca8 8f3b
00000150: aad9 1cbe 841c fabd 64ab 90be e9ae 15be
00000160: 3673 e13d 99ef 06be a4d1 0d3e 3db8 e0be
00000170: 4bf3 603e 94df 1c3e 9cba 94bc ae12 a2be
00000180: 299a 343d 038e 3ebe 3bf3 5dbf 0f39 98be
00000190: 8b03 dabe d442 22bf 7336 81be 9293 99be
000001a0: b68b fcbe e838 a0be e153 60bd 987a e3bd
000001b0: 9eaa a43e 73df e8be 8148 16be 2884 b63d
000001c0: 7149 f4be 0e75 7e3d e63d 5dbd bc73 8a3e
000001d0: 607a d6be ddd4 d3bc 1a47 86be b40e 36bd
000001e0: a935 70be 2e18 873d ea83 6cbf 9f08 81bf
000001f0: eab9 4abc a1cb 90bf 7788 46be ea16 9cbe
00000200: 1972 a93e 4fe9 85be 3148 0c3e 84bc 983a
00000210: 6445 e6be cb9e 203f 8924 41bd 0aa1 983e
00000220: e6ca cc3e 4c05 233e 77c2 303e 9827 f6be
00000230: b413 003d d562 8d3d a60d 973e 6a4c dfbd
00000240: 85e7 5fbf d53b 6cbe 6efe c33d 22e5 043e
00000250: c9ff d13c 76fd 953e eb67 963e 9b01 02be
00000260: bbb2 243e f846 ac3d cf34 b0be 1a52 f73e
00000270: 37a1 7dbd 9331 09be 5cd8 163d b431 babe
00000280: 46ba 5bbe efcb 08bf 9b21 cebe bdcc 09bc
00000290: 9142 3bbf 4f92 503e c5d7 6fbf 1eed 15be
000002a0: 69c4 71bf 859d bfbe 312b dbbd 9dd4 4fbe
000002b0: b147 8e3c 7ebc 8dbd 2a76 423e 2b54 8ebf
000002c0: 6126 d6be 212f 10bd d685 283d ddd4 723e
000002d0: aa16 babe 6c31 b0be c10f 7c3e 174b 2cbf
000002e0: 4b44 73be 80db 92be 1e8d 18be d202 3e3e
000002f0: 872d e2be 8fcc d9be 5e22 edbd 19ca cebe
00000300: 75a4 c33c f2f9 05bf 1626 20bf 5ae5 56bf
00000310: 814b 75bf 975b 0b3e 7830 89bf f09f 32bf
00000320: c583 1abf 44bb b6be 78e7 cbbd 2e0a 42bf
00000330: 83f2 f23d d825 cb3d bfd3 e73d b012 94bf
00000340: 504d a7be a435 463d e0ba c0bd 17e1 c5bc
00000350: ad1a 083a b31f 57bf e25d e73d 32cf a1be
00000360: 7472 763d 183e 10be 0c3a 97bd a469 843e
00000370: 8d7b d0be 8dcd b3be f8ce 76bd 75b9 a23c
00000380: cebf d9bc a8d9 c73d 556b e1be 7fe6 57bd
00000390: a28a 25bc 707a 623d 7eb9 35be 6ea4 99be
000003a0: 797a 01bf cbae df3d 1b64 8c3e e7e2 c7bd
000003b0: b8be f538 dcb6 abbc 5b02 243e 671d c33d
000003c0: 0a8c a6be d215 02bd 2d0e f13d 512e bc3e
000003d0: cb70 1c3d ae63 65bd 0d7f bfbc ebeb af3d
000003e0: b265 ee3d 12b8 cd3d 9568 9cbd ef3e babe
000003f0: a7ed 7abe 338a 5fbe fbd7 f03d 32ab 45bd

fc3.bias f4 [16]
-0.44037387 0.27547944 0.54858446 0.07250766 -0.15317406 -0.14957304 -0.13603917 0.38776144
0.4690216 0.6394504 0.4649292 -0.19226547 0.27829024 0.19516322 0.44246465 0.21432073
00000000: af78 e1be a40b 8d3e 0870 0c3f e57e 943d
00000010: a9d9 1cbe ad29 19be da4d 0bbe ab88 c63e
00000020: 9923 f03e 05b3 233f 330b ee3e 3de1 44be
00000030: 0f7c 8e3e ded8 473e ba8a e23e e576 5b3e

fc4.weight f4 [1, 16]
-0.24994375 -0.068551496 -0.03060524 -0.06990662 -0.03794779 0.084995754 -0.17971297 -0.03219042
0.06341253 0.035556573 -0.1077891 -0.058202483 -0.08213376 -0.028266171 -0.04107805 0.041065063
00000000: 41f1 7fbe ba64 8cbd d7b7 fabc 342b 8fbd
00000010: 246f 1bbd 4112 ae3d ad06 38be 1ada 03bd
00000020: 6ede 813d c5a3 113d 88c0 dcbd ba65 6ebd
00000030: bf35 a8bd 758e e7bc 7541 28bd d733 283d
