checkpoint_actor.pth (torch_old, 16038 bytes, 6 tensors)

fc1.weight f4 [64, 24]
0	0xbe1aeed8	-0.15130174
1	0xbea42afd	-0.32064047
2	0xbd636543	-0.055516493
3	0xbe505023	-0.2034307
4	0xbe87bb60	-0.26510143
5	0xbc8f6368	-0.017503455
6	0xbd806063	-0.06268384
7	0xbe884011	-0.2661138
8	0xbde6d6c4	-0.11271432
9	0xbe4e3da3	-0.201407
10	0xbe6b727a	-0.22992888
11	0x3d08737f	0.03331327
12	0xbd124ed5	-0.03571971
13	0xbe3a55b0	-0.1819675
14	0xbda4b855	-0.08042971
15	0x3e6a5e6f	0.22887586
16	0xbc87219a	-0.016495515
17	0xbc68f756	-0.014219126
18	0xbd688021	-0.05676282
19	0x3f05c048	0.5224652
20	0xbcf43d4a	-0.029814381
21	0xbd70c717	-0.058783617
22	0xbbd5f7ef	-0.0065298
23	0x3eb2e98c	0.34943807
24	0xbd80a797	-0.06281965
25	0x3d9b3ad2	0.075795785
26	0x3da637ef	0.08116137
27	0x3c7e25d6	0.0155119505
28	0x3e79d8fe	0.24399182
29	0x3d73f564	0.059560195
30	0xbda18b27	-0.07887869
31	0x3e48e40a	0.1961824
32	0x3d911cc7	0.07085567
33	0xbe368c98	-0.1782707
34	0x3c85784a	0.01629271
35	0x3e1fbb89	0.15598883
36	0x3e0f0429	0.1396643
37	0x3e94b8ba	0.29047185
38	0xbd0a8ce0	-0.033825755
39	0x3e21cbf9	0.15800466
40	0xbe7b2929	-0.2452742
41	0xbde674af	-0.112527244
42	0x3c3e4aaa	0.011614481
43	0x3eb68a9b	0.35652623
44	0x3d9c21af	0.07623612
45	0x3f6502be	0.8945731
46	0x3c010432	0.007874535
47	0x3e90e565	0.28300014
48	0xbd3ddc03	-0.046352398
49	0xbe2b623b	-0.1673669
50	0x3c85e3cc	0.016343974
51	0x3e743637	0.23848806
52	0x3de7fa42	0.1132703
53	0xbd6404a6	-0.055668496
54	0x3bf9f6cc	0.0076282974
55	0x3d1a2211	0.037630145
56	0xbe0902a3	-0.13379912
57	0xbe2c4a2c	-0.1682517
58	0x3d9e5104	0.07730296
59	0x3e919cc4	0.28439915
60	0xbc565548	-0.013081856
61	0xbd567283	-0.0523553
62	0x3b7ebd45	0.0038870138
63	0x3e1416be	0.144618
64	0xbdef614e	-0.11688481
65	0xbe36ed49	-0.17863955
66	0x3d8f71fb	0.07004162
67	0x3e926af4	0.28597224
68	0xbe1fdaf9	-0.15610875
69	0x3e99e5e0	0.30058193
70	0x3e1a48f6	0.15066895
71	0x3e729830	0.23690867
72	0xbecfeb40	-0.4060917
73	0x3dc42a22	0.09578349
74	0xbc947504	-0.018122204
75	0xbd2cf6d4	-0.04222758
76	0x3ea0359f	0.3129091
77	0xbcbb65e1	-0.022875728
78	0x3db51d3a	0.08843465
79	0x3e2b05d1	0.16701438
80	0xbe903fcb	-0.2817367
81	0x3ea92683	0.33037195
82	0xbc099d6e	-0.008399351
83	0xbc2d7341	-0.010586561
84	0x3ec9e8ed	0.3943552
85	0xbdefa53c	-0.11701438
86	0xbc5ae0e1	-0.013359279
87	0xbe331ca8	-0.174914
88	0xbdcc3c15	-0.09972397
89	0x3e86f774	0.26360667
90	0x3dbb3502	0.0914097
91	0xbe266506	-0.16249475
92	0x3edba9f5	0.42903104
93	0xbdbccdf7	-0.09218972
94	0xbe04cc4b	-0.12968557
95	0xbe0b8746	-0.13625821
96	0xbd115fc8	-0.035491735
97	0xbe160bc2	-0.14652923
98	0x3aa7a57c	0.0012790407
99	0xbcfd4aa6	-0.030919384
100	0x3e52ef16	0.20599017
101	0xbd015a3c	-0.031580195
102	0x3dc32be1	0.095298536
103	0x3e44e8ea	0.19229475
104	0xbd458711	-0.048224512
105	0xbe1bcb74	-0.1521433
106	0x3dd1344e	0.102150545
107	0x3e09ae01	0.13445283
108	0x3c590d7a	0.013247842
109	0xba432556	-0.0007444223
110	0x3e53a1f8	0.20667255
111	0xbccac3ec	-0.024751626
112	0xbbc263e8	-0.00593232
113	0xbd52994e	-0.051415734
114	0xbd3c70c3	-0.046005975
115	0x3e07741a	0.13227883
116	0xbdd35d01	-0.103204735
117	0x3d4c3a9f	0.049860593
118	0x3dbcfdcf	0.09228098
119	0x3e102664	0.14077145
120	0xbddb3232	-0.10702933
121	0xbdd1b437	-0.102394514
122	0x3d1f02c2	0.03882099
123	0xbcb1b4e7	-0.021692706
124	0xbcc6e550	-0.024279267
125	0xbdbf10f4	-0.093294054
126	0x3d08630d	0.033297587
127	0x3c07bc3e	0.0082846265
128	0x3d53c5d4	0.051702335
129	0xbcfe8c56	-0.031072777
130	0xbc8b40a3	-0.016998595
131	0x3cc2332f	0.023706047
132	0x3e4b2182	0.19837001
133	0x3e3f4a70	0.1868074
134	0xbc624ae6	-0.0138118025
135	0xbd2e3736	-0.042533122
136	0xbdc87e5a	-0.09789725
137	0xbddefd06	-0.10888104
138	0x3e0d519f	0.13800667
139	0x3c6760d2	0.014122205
140	0x3d9a0a73	0.07521524
141	0x3e44d528	0.19221938
142	0xbd5cfd99	-0.053952787
143	0x3e1453bf	0.14485072
144	0xbe7b7279	-0.24555387
145	0x3e51cb9c	0.20487827
146	0xbcf7189f	-0.030163107
147	0xbda14209	-0.07873923
148	0x3ebbcc9d	0.36679545
149	0x3d17294f	0.03690463
150	0x3cb7d4e3	0.02244038
151	0x3b2bbd33	0.00262053
152	0xbde7e3a8	-0.11322719
153	0x3ec14f69	0.37755898
154	0xbcd7d7ed	-0.026348079
155	0x3da6fe03	0.08153918
156	0x3e68c341	0.22730733
157	0xbe9daba8	-0.30795026
158	0xbcd761b0	-0.026291698
159	0xbd8729ec	-0.06599793
160	0xbe39a3ef	-0.18128942
161	0x3edbd6a1	0.42937186
162	0xbdea8a45	-0.11452154
163	0x3e1782fd	0.14796062
164	0x3d870505	0.06592754
165	0xbeaf168b	-0.34196886
166	0x3d586b3b	0.052836638
167	0x3ea3d4c7	0.31998274
168	0x3e34a28d	0.17640133
169	0x3d13e2cb	0.03610496
170	0xbd60c1dd	-0.054872382
171	0x3db81f24	0.089903146
172	0x3d27f0af	0.041001018
173	0x3e24f4ad	0.16108961
174	0xbd13d158	-0.036088318
175	0xbdf84927	-0.12123328
176	0xbcbc4d87	-0.022986187
177	0x3d2f810f	0.04284769
178	0x3d61eb44	0.055156007
179	0xbde95c84	-0.11394599
180	0x3dcf21a1	0.10113836
181	0xbcab5111	-0.020912679
182	0x3e0caac8	0.13737023
183	0x3ce95fa4	0.028487988
184	0x3dc81a14	0.09770599
185	0x3d0d11e3	0.034440886
186	0x3d256b9b	0.040385824
187	0xbd886067	-0.06659012
188	0x3e029c2d	0.12754889
189	0xbe4bd761	-0.1990638
190	0x3e2980c5	0.16553028
191	0x3df6f9e2	0.1205938
192	0xbdc5df18	-0.096616924
193	0x3e7f6983	0.24942593
194	0x3d9be484	0.07611945
195	0x3e30722a	0.1723105
196	0xbdfa6e52	-0.12228073
197	0x3e9aac02	0.30209357
198	0x3c4d5e44	0.012534682
199	0x3e4001d2	0.18750694
200	0xbe0af919	-0.13571586
201	0x3ebd27a2	0.369443
202	0xbdbeb710	-0.0931226
203	0x3e7e0a6e	0.24808666
204	0x3db10225	0.08642987
205	0x3b9968c8	0.0046816804
206	0x3e03398d	0.12814923
207	0x3e2f4120	0.17114687
208	0xbe0f9371	-0.14021088
209	0x3edd038a	0.43166763
210	0x3b19b522	0.002345391
211	0x3d8b74d0	0.068093896
212	0x3d37b627	0.04485145
213	0xbebfdb89	-0.3747218
214	0x3d339d08	0.04385093
215	0xbc3f76b9	-0.0116860205
216	0x3e60fea7	0.21972142
217	0x3ebfb248	0.37440705
218	0xbd3c20b6	-0.045929633
219	0x3e48521f	0.19562577
220	0x3e589dd6	0.2115396
221	0xbdfa9b2b	-0.12236627
222	0xbdcefa14	-0.10106292
223	0x3e14e804	0.14541632
224	0x3e36990c	0.1783182
225	0x3ebfbad4	0.37447226
226	0xbe33e066	-0.1756607
227	0x3d01124a	0.031511582
228	0x3eba4711	0.36382344
229	0xbe668bbd	-0.22514243
230	0x3d3701c0	0.044679403
231	0x3e4accdc	0.1980471
232	0x3e2cdd8b	0.16881387
233	0x3ecb28fd	0.3967971
234	0xbd55a93f	-0.05216336
235	0xbddb5610	-0.107097745
236	0x3ec3b787	0.38225958
237	0xbe889190	-0.26673555
238	0x3d2c202a	0.04202286
239	0xbdd01f16	-0.10162179
240	0xbd23b663	-0.03996886
241	0xbdd3cfd3	-0.10342374
242	0xbc23d2e5	-0.009999012
243	0x3c43246a	0.011910537
244	0xbde3e334	-0.1112732
245	0xbe3a0609	-0.18166365
246	0x3d011000	0.0315094
247	0x3c83f1c5	0.016106496
248	0xbd2924a6	-0.041294716
249	0xbe4a9353	-0.19782762
250	0x3de7c624	0.11317089
251	0x3de32941	0.11091853
252	0xbe2b05a4	-0.1670137
253	0xbe884b69	-0.26620033
254	0x3d2c1e27	0.042020943
255	0x3c856f3d	0.016288394

fc1.bias f4 [64]
0	0xbd877050	-0.06613219
1	0x3e3d22ee	0.18470356
2	0x3e46279a	0.19351044
3	0xbdd854d0	-0.10563052
4	0xbd50a985	-0.050942916
5	0x3e1d9de8	0.15392268
6	0xbd9ed40d	-0.07755289
7	0x3e4336ad	0.19063826
8	0x3e009d16	0.12559924
9	0xbdf72992	-0.12068476
10	0x3e704ba8	0.2346636
11	0x3e0054d4	0.1253236
12	0x3e059531	0.13045193
13	0x3dfe96f9	0.124311395
14	0xbda5c9c8	-0.08095127
15	0x3c87daa3	0.016583746
16	0xbbadf03e	-0.00530818
17	0xbe14cf03	-0.14532094
18	0xbcee19bd	-0.029065007
19	0x3eb17e0d	0.34666482
20	0x3edb8248	0.42872834
21	0x3d30c1cb	0.043153565
22	0x3d6bd0fd	0.057572354
23	0xbd811991	-0.063037045
24	0x3eb2c5d3	0.34916553
25	0xbdcddb59	-0.10051603
26	0x3e6679ac	0.22507352
27	0x3dd767af	0.10517823
28	0xbe2cbed1	-0.16869666
29	0xbbd6b115	-0.0065518715
30	0x3e844b46	0.2583868
31	0x3e2dbf7e	0.1696758
32	0x3bb7156c	0.0055872705
33	0x3e1394e2	0.14412263
34	0x3ecba581	0.39774707
35	0xbdcdc245	-0.100468196
36	0x3c3b30b4	0.011425186
37	0xbd4b7776	-0.049674474
38	0x3c81e710	0.01585725
39	0x3e3f0023	0.18652396
40	0x3e6bd33f	0.23029803
41	0x3e675b27	0.22593366
42	0x3ccb6023	0.024826115
43	0x3d55f6b4	0.052237228
44	0x3caa37ea	0.020778615
45	0xbd884914	-0.066545635
46	0x3e572b8a	0.21012703
47	0x3e09b56e	0.13448116
48	0x3e2f4f23	0.17120032
49	0xbdd1c974	-0.10243502
50	0xbd5b3673	-0.053518724
51	0x3b6310f2	0.0034647551
52	0x3e401609	0.18758406
53	0xbe1d2218	-0.15345037
54	0x3ca640f4	0.020294644
55	0x3d67063b	0.056402426
56	0x3dce8736	0.10084383
57	0xbd4a8e54	-0.04945214
58	0x3b8d166f	0.004305653
59	0xbe9a1c2e	-0.30099624
60	0xbce111be	-0.02747428
61	0x3e1113f3	0.14167766
62	0xbe110771	-0.14162995
63	0x3d997877	0.0749368

fc2.weight f4 [32, 64]
0	0x3e635132	0.22198942
1	0xbe24c14b	-0.1608936
2	0x3c31505b	0.010822381
3	0x3e0473a6	0.12934741
4	0x3d21414e	0.03936892
5	0x3e150ddd	0.1455607
6	0x3e5ff1b3	0.21869545
7	0x3e6a7c9e	0.228991
8	0x3e72fe14	0.23729736
9	0xbde97b4c	-0.1140047
10	0x3e74e519	0.23915519
11	0xbe468f26	-0.19390544
12	0xbd435eaa	-0.0476977
13	0xbb8a7766	-0.004225659
14	0xbd57dd97	-0.05270156
15	0x3ceea5fb	0.02913188
16	0x3eb3057e	0.34965128
17	0xbc836838	-0.016040906
18	0xbe0708b9	-0.13186921
19	0xbd4dfb24	-0.050288334
20	0x3ee46c5d	0.44613925
21	0xbba9713a	-0.0051709684
22	0x3d8f8038	0.07006878
23	0xbda802eb	-0.082036816
24	0x3cacb567	0.021082593
25	0x3ddfd28f	0.10928833
26	0xbc8a30c2	-0.016868953
27	0xba364c46	-0.00069541147
28	0x3e98c6cc	0.2983917
29	0x3e1bbaa0	0.1520791
30	0x3e0e6bf4	0.13908368
31	0x3db9ed04	0.0907841
32	0xbe7df0f1	-0.24798943
33	0x3e528ad1	0.20560767
34	0x3e5a8adc	0.21342033
35	0x3d2f2677	0.042761292
36	0xbe5398a5	-0.20663698
37	0x3e3c7784	0.18404967
38	0x3decf99f	0.11571049
39	0x3c15dccf	0.009146883
40	0x3d8319c6	0.064014
41	0xbd9d5981	-0.07683087
42	0xbe5796bd	-0.21053596
43	0xbca4d562	-0.02012128
44	0xbd81434a	-0.063116625
45	0x3e9649bf	0.2935314
46	0xbca761b0	-0.020432323
47	0xbd990486	-0.07471566
48	0x3e6633c0	0.22480679
49	0xbd2c2004	-0.04202272
50	0x3da3f6a5	0.08006028
51	0x3e054946	0.13016233
52	0x3dc3ca5d	0.09560082
53	0xbe75d26f	-0.24006055
54	0x3e2d3879	0.16916074
55	0x3e5f7a0b	0.218239
56	0xbe41be9b	-0.18920366
57	0x3db8de2d	0.09026752
58	0xbd991ab1	-0.07475794
59	0x3dcaacd1	0.09896243
60	0xbd067d97	-0.032834616
61	0xbdc3e484	-0.0956507
62	0x3eaa97c6	0.3331892
63	0x3e2ca0a0	0.16858149
64	0x3da72674	0.08161631
65	0x3e5e666b	0.21718757
66	0x3db99e95	0.0906345
67	0xbf035197	-0.5129637
68	0x3c4024a7	0.011727489
69	0x3df5fef0	0.12011516
70	0xbf259442	-0.6467935
71	0xbe82e7ee	-0.25567573
72	0xbdeace10	-0.114650846
73	0x3d2326b6	0.03983184
74	0x3de48a65	0.11159209
75	0x3e395b47	0.18101226
76	0xbd181de6	-0.03713789
77	0xbcc62704	-0.024188526
78	0x3a3a43eb	0.00071054575
79	0x3d169dcf	0.03677159
80	0xbea74142	-0.32666975
81	0xbcec64c8	-0.02885665
82	0x3d517859	0.051140163
83	0x3e53c6ef	0.20681356
84	0x3e26f814	0.16305572
85	0x3e5dae0e	0.21648428
86	0xbabd4ae2	-0.0014441872
87	0xbdcfa86a	-0.10139544
88	0xbe0beead	-0.13665266
89	0x3d80c620	0.06287789
90	0x3c4bf5d4	0.012448747
91	0xbd790bce	-0.060802273
92	0xbcb780a2	-0.022400204
93	0x3df8e694	0.12153354
94	0x3e3e4dd5	0.18584378
95	0x3ce9032b	0.028443893
96	0xbd795a73	-0.060877275
97	0xbe5c9be4	-0.21543843
98	0xbe04d761	-0.12972786
99	0xbd57630a	-0.052584685
100	0x3e0cabd3	0.1373742
101	0xbe502041	-0.20324804
102	0xbd236727	-0.039893296
103	0xbd08f8dd	-0.03344046
104	0xbe7dfdc4	-0.24803835
105	0x3e323bdd	0.17405649
106	0xbd59c4f3	-0.05316634
107	0x3e1d2acb	0.15348355
108	0xbea371ee	-0.3192286
109	0x3c8e9b26	0.017407965
110	0x3d40490a	0.046944655
111	0x3e81a1f2	0.25318867
112	0x3dfb9024	0.12283352
113	0xbde02732	-0.10944976
114	0xbd3dfe8d	-0.046385337
115	0x3e97dcbe	0.296606
116	0xbdf42334	-0.11920777
117	0x3cf6c9c1	0.0301255
118	0xbdd59275	-0.10428325
119	0xbda135e5	-0.07871608
120	0x3e80c18e	0.2514767
121	0xbd80f5fa	-0.06296916
122	0x3e967f35	0.29393926
123	0x3cc42140	0.023941636
124	0x3e02d0fc	0.12775034
125	0x3e35495d	0.17703767
126	0x3e1ba9ae	0.15201446
127	0xbd964f49	-0.07339341
128	0xbeb8b165	-0.3607284
129	0x3e876b7e	0.26449198
130	0x3dfc1261	0.12308193
131	0xbe7a86fd	-0.24465556
132	0xbe1cd3dd	-0.15315194
133	0x3e6a1a14	0.2286151
134	0x3e441fbb	0.19152729
135	0x3d72dd81	0.059293274
136	0xbe3f839b	-0.18702547
137	0xbf30dd26	-0.69087446
138	0x3eb6a0ce	0.3566956
139	0x3e4761d6	0.19470915
140	0xbf1c4e29	-0.6105676
141	0xbc8d5c6c	-0.017255984
142	0x3e908df1	0.28233293
143	0x3eb55d35	0.35422674
144	0x3d04144c	0.03224592
145	0x3c78cf2a	0.0151861105
146	0xbdda156c	-0.10648617
147	0xbf848fe7	-1.0356416
148	0x3c84dcce	0.01621857
149	0x3de7ed49	0.113245554
150	0xbe843b45	-0.2582647
151	0xbdd82f4a	-0.10555895
152	0xbe04e0b7	-0.12976347
153	0xbe002b1d	-0.12516446
154	0xbda3be95	-0.07995335
155	0xbe65305d	-0.2238173
156	0x3e85092d	0.25983563
157	0x3e621365	0.22077711
158	0xbd418cad	-0.0472533
159	0x3e1234ff	0.14278029
160	0xbeb962d7	-0.3620822
161	0xbe0adf0f	-0.13561653
162	0xbe050922	-0.12991765
163	0x3e1482da	0.14503041
164	0xbe2976d1	-0.16549231
165	0x3d2fce8d	0.04292159
166	0xbde539bf	-0.11192655
167	0x3dc91564	0.09818533
168	0xbe030ca0	-0.12797785
169	0x3da0444a	0.07825525
170	0xbe4c7a33	-0.1996849
171	0x3e80a071	0.25122407
172	0xbdfc7687	-0.12327295
173	0xbec214f7	-0.3790662
174	0x3d81211f	0.063051455
175	0x3d83542d	0.0641254
176	0xbc5cb65d	-0.013471213
177	0xbf060f40	-0.5236702
178	0xbe6c39ff	-0.23068999
179	0xbe865cba	-0.2624262
180	0x3c606a24	0.013697181
181	0x3ebb201a	0.3654793
182	0x3db8e4a3	0.09027984
183	0xbf24ce11	-0.6437693
184	0xbe86e3de	-0.26345724
185	0x3e932505	0.2873918
186	0x3e94c1c6	0.29054087
187	0x3ba58edc	0.0050524306
188	0x3d217652	0.03941948
189	0x3e25aaad	0.16178389
190	0x3d754423	0.059879433
191	0xbe6770da	-0.22601643
192	0xbdddd833	-0.10832252
193	0x3e3c941c	0.18415874
194	0x3e1a86ae	0.15090439
195	0x3cdd5eb6	0.0270227
196	0x3de96609	0.11396415
197	0xbd9f06e3	-0.077649854
198	0xbe9b593e	-0.30341524
199	0xbeb9ea3d	-0.36311522
200	0xbdfa32d6	-0.122167274
201	0x3e272593	0.16322927
202	0x3e5d9053	0.21637087
203	0x3e6e06a5	0.23244722
204	0xbd522316	-0.05130299
205	0xbceec004	-0.029144295
206	0xbcf146ba	-0.02945267
207	0xbe3f7b03	-0.18699269
208	0xbdffa828	-0.12483245
209	0xbdffde4b	-0.12493571
210	0xb9e523ef	-0.00043705056
211	0x3e0f4205	0.13990028
212	0xbe676e0c	-0.22600573
213	0x3e0ad2f6	0.13557038
214	0x3c72e22c	0.014824431
215	0x3e17d580	0.14827538
216	0xbe03e0c5	-0.12878712
217	0xbea7521d	-0.32679835
218	0x3cceb81d	0.025234276
219	0xbc4b83b3	-0.012421536
220	0xbe61ab11	-0.22037913
221	0x3d90234d	0.07037983
222	0xbe544551	-0.20729567
223	0xbd91d095	-0.07119862
224	0x3d9508fc	0.07277104
225	0xbe6c431d	-0.23072477
226	0x3e0c3f41	0.13696004
227	0xbd577e3e	-0.05261063
228	0x3e2f530b	0.17121522
229	0xbdab2eb4	-0.08358517
230	0xbdeded66	-0.11617546
231	0x3ea202df	0.31642815
232	0xbe59ff67	-0.21288835
233	0x3e5f89e2	0.21829942
234	0x3eb35299	0.35023955
235	0x3e4c66dd	0.19961114
236	0xbe18fd27	-0.1494032
237	0x3cca9d07	0.02473308
238	0x3e2579d2	0.16159752
239	0x3e1afd54	0.151357
240	0xbe038139	-0.12842263
241	0xbdaacf2a	-0.08340295
242	0x3d18f2bc	0.037340865
243	0x3d0ef468	0.034901053
244	0x3d0b80f3	0.034058522
245	0x3e1c99ae	0.15292999
246	0xbe24d5da	-0.16097203
247	0xbe206c4b	-0.1566631
248	0x3ef72d13	0.48276576
249	0xbd69d824	-0.057090893
250	0x3ce8549f	0.028360663
251	0x3d3a85a1	0.045537595
252	0x3e273fda	0.16332951
253	0x3e8b8999	0.27253416
254	0xbd26a605	-0.040685672
255	0xbdf7e7e2	-0.12104775

fc2.bias f4 [32]
0	0x3d43d7f6	0.04781338
1	0x3e2a79a4	0.16647965
2	0x3dfe395e	0.12413286
3	0x3cde82b9	0.027161943
4	0x3dd72fc8	0.105071604
5	0x3d953675	0.072857775
6	0x3d9d0576	0.07667057
7	0xbe023ff5	-0.1271971
8	0x3e179002	0.14801028
9	0x3d1e741a	0.03868494
10	0xbdd18ed1	-0.10232318
11	0x3ce0981d	0.027416283
12	0xbd972d84	-0.07381728
13	0x3d1fc9e7	0.03901091
14	0x39fcc2ae	0.00048210233
15	0xbe17d08d	-0.1482565
16	0x3e44ea5c	0.19230026
17	0x3e0130e6	0.1261631
18	0xbd3c0b9c	-0.04590951
19	0x3d7453ab	0.059650104
20	0x3e33323e	0.17499635
21	0xbd8085bb	-0.06275507
22	0x3da4d6a0	0.08048749
23	0x3dbf9b91	0.09355844
24	0x3dabdf1b	0.08392163
25	0x3d45b6fe	0.048270218
26	0x3e660b1f	0.2246518
27	0xbe52c64e	-0.2058346
28	0x3cbde561	0.023180665
29	0xbe243dd4	-0.1603921
30	0x3dc02f6e	0.093840465
31	0xbdd3239a	-0.10309525

fc3.weight f4 [2, 32]
0	0x3e04690b	0.12930696
1	0x3d1eb8c0	0.03875041
2	0x3f1efc05	0.621033
3	0xb88e5ac6	-6.7879955e-05
4	0xbe730cf3	-0.23735408
5	0xbcfe17e5	-0.031017253
6	0xbd97fbc0	-0.074210644
7	0xbe2027a1	-0.15640117
8	0x3dafc547	0.085825495
9	0xbd9dc15f	-0.07702898
10	0xbdc2c090	-0.09509385
11	0xbd1c5d3e	-0.03817486
12	0xbd6252e0	-0.055254817
13	0xbc11bda9	-0.008895316
14	0x3d2545cb	0.040349763
15	0xbe706eac	-0.23479718
16	0xbd620ecc	-0.055189893
17	0xbda34a3b	-0.07973143
18	0xbe0d14e4	-0.137775
19	0x3ea62b87	0.32455084
20	0x3d48ce1b	0.049024682
21	0xbd53f9b7	-0.05175182
22	0xbd7cc3f5	-0.061710317
23	0xbbc3383f	-0.005957633
24	0xbd8df826	-0.06932096
25	0xbe3f69f5	-0.18692763
26	0x3def7d23	0.1169379
27	0x3ed464f7	0.4148328
28	0x3de15d8f	0.11004173
29	0xbd8a75b9	-0.06760735
30	0x3f006175	0.5014871
31	0xbce39949	-0.027783053
32	0x3e1d364b	0.15352742
33	0xbea563c5	-0.3230268
34	0x3f040465	0.51569206
35	0xbe0e3cbf	-0.1389036
36	0xbe24effe	-0.16107175
37	0xbe20892e	-0.1567733
38	0xbd839459	-0.064247794
39	0x3d41f59f	0.047353383
40	0x3daf9e9c	0.08575174
41	0x3e5fd28c	0.21857661
42	0x3cc1280a	0.023578662
43	0xbedc9cc2	-0.43088347
44	0xbc21a3f7	-0.009865752
45	0xbe90ed34	-0.28305972
46	0x3d0879f1	0.033319417
47	0x3e4524cc	0.19252318
48	0xbdaeac27	-0.08528929
49	0xbe2a973c	-0.16659254
50	0xbcd67dc1	-0.026183011
51	0x3e83be69	0.2573121
52	0xbea692ee	-0.32533973
53	0x3c8a5bfb	0.016889563
54	0xbd175b7a	-0.036952473
55	0xbe8cf457	-0.27530167
56	0xbcff13f4	-0.031137444
57	0x3e2bb967	0.16769944
58	0x3e86b3df	0.26309106
59	0x3ce3256f	0.02772781
60	0x3e57ed11	0.21086527
61	0x3d519c30	0.051174343
62	0x3e69aa8c	0.22818965
63	0xbde698ff	-0.112596504

fc3.bias f4 [2]
0	0x3da0ae89	0.0784579
1	0xbdde64ea	-0.108590916
